…
2791       0        9    21        0  ...  70000     etc    14    113
2792       0        9    74        0  ...  70000     etc    14    113
2793       0        3     5        0  ...  70000   환자 접촉    14    113
2794       0        7     0        0  ...  70000  이태원 클럽    14    113

[2795 rows x 12 columns]
<class 'numpy.ndarray'>
<class 'numpy.ndarray'>
Model: "sequential"
_________________________________________________________________
Layer (type)                 Output Shape              Param #   
=================================================================
dense (Dense)                (None, 70)                490       
_________________________________________________________________
dropout (Dropout)            (None, 70)                0         
_________________________________________________________________
dense_1 (Dense)              (None, 70)                4970      
_________________________________________________________________
dropout_1 (Dropout)          (None, 70)                0         
_________________________________________________________________
dense_2 (Dense)              (None, 70)                4970      
_________________________________________________________________
dropout_2 (Dropout)          (None, 70)                0         
_________________________________________________________________
dense_3 (Dense)              (None, 70)                4970      
_________________________________________________________________
dropout_3 (Dropout)          (None, 70)                0         
_________________________________________________________________
dense_4 (Dense)              (None, 3)                 213       
=================================================================
Total params: 15,613
Trainable params: 15,613
Non-trainable params: 0
_________________________________________________________________
Epoch 1/130
699/699 [==============================] - 2s 2ms/step - loss: 4.7025 - accuracy: 0.3674 - val_loss: 1.4414 - val_accuracy: 0.4621
Epoch 2/130
699/699 [==============================] - 1s 2ms/step - loss: 1.7503 - accuracy: 0.4790 - val_loss: 1.0331 - val_accuracy: 0.6338
…
